REINFORCE/reinforce.pth (torch, 1695 bytes, 4 tensors)

fc1.weight f4 [8, 4]
00000000: f785 ca3b c1fa b63b ff30 d9bf 4951 aebf
00000010: 4f3d 1cbe 1c34 203f 0357 c63f a180 ab3f
00000020: 984f f6bd 3ba4 443d 0536 8dbd ff53 67bc
00000030: 9e07 b8be e297 8abe d212 673e ce36 923e
00000040: 1abb debc 77ee bbbb 0b25 9dbe df62 a1bd
00000050: 9af8 a93d e1ba 443f 9bfc 9e3f 30b0 9a3f
00000060: bf47 d03d 97e0 fabe 3de6 7bbf cc6d a7bf
00000070: 3b49 da3d 45a0 063f c1ed a53e 13d8 a33e
0.0061805206 0.0055840914 -1.6968077 -1.3618556 -0.15257762 0.6257951 1.5495304 1.339863
-0.120269 0.048008185 -0.06895069 -0.014119147 -0.3594331 -0.27069002 0.22565773 0.28557438
-0.027188826 -0.0057352143 -0.30692324 -0.07880186 0.0829937 0.76847655 1.2420839 1.2085018
0.101699345 -0.48999473 -0.9839819 -1.3080382 0.10658499 0.525883 0.32407954 0.3200079

fc1.bias f4 [8]
00000000: 117e 513e c4f2 163e fcda dcbe 9b75 02bf
00000010: 16ed 08bf 0999 aa3e 42d1 1e3f d8fd 5dbd
0.20458247 0.14741045 -0.43135822 -0.509607 -0.53486764 0.33319882 0.6203805 -0.054197162

fc2.weight f4 [2, 8]
00000000: 29c3 093f 8e41 8bbf 2046 0d3e 562c 96be
00000010: e75e 8cbd d2f9 2fbf 294d 5f3f 09ae ffbd
00000020: 9924 2dbf fbd7 643f ed85 173e 1d1d a13e
00000030: 45e6 3ebd ed8a 0d3f 0105 d3be 18e2 fd3d
0.53813416 -1.0879381 0.13796282 -0.293307 -0.06854039 -0.6874057 0.8722711 -0.124843664
-0.6763397 0.8939206 0.14797182 0.31467524 -0.04660632 0.5529011 -0.41214755 0.123966396

fc2.bias f4 [2]
00000000: 9257 163e d0c8 b5be
0.14681843 -0.3550477
