REINFORCE/reinforce.pth (torch_old, 1034 bytes, 4 tensors)

fc1.weight f4 [8, 4]
00000000: 389c e8bd 76ad 943d b862 fbbf d672 d1bf
00000010: efcd d23c bdeb fc3e b3c1 cb3f 22af 6f3f
00000020: daac f5bd c1fe 453d cae9 8dbd 3fc3 6cbc
00000030: cdd3 a0be fe65 aabd 13aa 913e 3b1a 4b3e
00000040: 6aa4 26be 7fd2 3a3e 4fc9 1cbe ee3c 48bd
00000050: 89b1 10be 38ba 183f 39dc ca3f 973a 983f
00000060: 3bee e33d 22ca 0ebf b8a7 b0bf e2ad b4bf
00000070: 1922 c2bd 0ac9 073e 1e21 3fbe 780d 8e3e
-0.11357921 0.072596475 -1.9639502 -1.636317 0.025732962 0.49398604 1.5918487 0.93626606
-0.119958594 0.048338655 -0.06929357 -0.014450847 -0.3141159 -0.08320235 0.2845007 0.19834225
-0.16273656 0.1824436 -0.15311168 -0.048886232 -0.14130224 0.5965915 1.5848457 1.189288
0.11129423 -0.5577718 -1.3801184 -1.4115565 -0.0947916 0.13260284 -0.18664977 0.2774465

fc1.bias f4 [8]
00000000: a186 d63d 7677 ae3d 00ae dcbe a4a0 0ebf
00000010: 945c dcbe 4a0c cd3e 109e 003f f148 dabd
0.10474897 0.08518879 -0.431015 -0.5571387 -0.43039382 0.40048438 0.50241184 -0.10658444

fc2.weight f4 [2, 8]
00000000: 5b00 303f 5311 41bf 43ef 0c3e e47a ab3c
00000010: 85c5 1ebe 4e6e 28bf 833f 7b3f 106c 363c
00000020: ca61 53bf 2166 0f3f c9dc 173e 5e5f e439
00000030: fa71 233d 6aff 053f ea74 05bf 51cb 44bc
0.6875054 -0.7541706 0.13763146 0.020932622 -0.15505035 -0.6579331 0.98143786 0.011134163
-0.8257109 0.5601521 0.14830317 0.00043558603 0.03990362 0.52342856 -0.5213152 -0.012011365

fc2.bias f4 [2]
00000000: 574a 763d 5266 89be
0.06012949 -0.26835877
