REINFORCE/reinforce.pth (torch_old, 1034 bytes, 4 tensors)

fc1.weight f4 [8, 4]
000000 61 87 ca 3b f5 fb b6 3b 03 31 d9 bf 4b 51 ae bf
       0.006180689 0.005584235 -1.6968082 -1.3618559
000010 56 3d 1c be 1c 34 20 3f 07 57 c6 3f a3 80 ab 3f
       -0.15257773 0.6257951 1.5495309 1.3398632
000020 83 4f f6 bd 42 a4 44 3d 10 36 8d bd 00 54 67 bc
       -0.120268844 0.04800821 -0.06895077 -0.014119148
000030 97 07 b8 be df 97 8a be d8 12 67 3e d1 36 92 3e
       -0.3594329 -0.27068993 0.22565782 0.28557447
000040 04 bb de bc 1b ee bb bb 0a 25 9d be e2 62 a1 bd
       -0.027188785 -0.0057351715 -0.3069232 -0.078801885
000050 67 f8 a9 3d e2 ba 44 3f 9b fc 9e 3f 30 b0 9a 3f
       0.08299332 0.7684766 1.2420839 1.2085018
000060 96 47 d0 3d 92 e0 fa be 30 e6 7b bf cf 6d a7 bf
       0.10169904 -0.4899946 -0.98398113 -1.3080386
000070 83 49 da 3d 56 a0 06 3f de ed a5 3e 10 d8 a3 3e
       0.106585525 0.52588403 0.3240804 0.3200078

fc1.bias f4 [8]
000000 18 7e 51 3e c7 f2 16 3e fb da dc be 9a 75 02 bf
       0.20458257 0.1474105 -0.4313582 -0.50960696
000010 15 ed 08 bf 03 99 aa 3e 41 d1 1e 3f 80 fd 5d bd
       -0.5348676 0.33319864 0.62038046 -0.054196835

fc2.weight f4 [2, 8]
000000 2a c3 09 3f 8b 41 8b bf 1a 46 0d 3e 5a 2c 96 be
       0.5381342 -1.0879377 0.13796273 -0.29330713
000010 d2 5e 8c bd d0 f9 2f bf 1c 4d 5f 3f 80 ae ff bd
       -0.06854023 -0.6874056 0.87227035 -0.12484455
000020 97 24 2d bf fa d7 64 3f f3 85 17 3e 21 1d a1 3e
       -0.67633957 0.89392054 0.14797191 0.31467536
000030 6e e6 3e bd eb 8a 0d 3f 06 05 d3 be 98 e2 fd 3d
       -0.046606474 0.55290097 -0.4121477 0.12396735

fc2.bias f4 [2]
000000 93 57 16 3e d4 c8 b5 be
       0.14681844 -0.35504782
